app/src/main/assets/compat_model.tflite (tflite, 12840 bytes, 7 tensors)

arith.constant f4 [1, 16]
1.3046705 0.6266396 -0.55430186 0.30565858 -0.8678657 0.8237123 -0.76131153 0.40323907
-1.118971 1.6741115 0.87146723 0.8351328 -0.9688017 -0.8057912 -0.84650666 0.89109373
00000000: 71ff a63f 746b 203f bae6 0dbf 487f 9c3e
00000010: 722c 5ebf cfde 523f 50e5 42bf 5a75 ce3e
00000020: 713a 8fbf 4949 d63f 7a18 5f3f 43cb 553f
00000030: 6303 78bf 5548 4ebf a9b4 58bf b81e 643f

arith.constant1 f4 [16, 32]
0.4446914 -0.1084378 -0.5993795 0.24025904 -0.2580708 0.12982969 0.3086253 -0.14563745
-0.05536305 0.4791251 0.4430281 -0.47200283 -0.4418541 -0.57702273 -0.2533649 -0.11477123
-1.584635 -1.186543 -0.2795498 0.15473184 0.34949362 0.13013409 0.0715494 0.031153558
-0.088454194 -0.36397845 0.50246626 0.68694735 0.05271426 0.5948529 0.5813549 -0.22504537
0.30939195 0.13860695 -0.62284476 0.22448899 0.6332451 -0.33647203 -0.15528245 0.5483138
0.49822742 0.10851939 0.27109173 0.18810388 0.45121083 0.2662988 0.18540588 -0.9272072
-0.33810452 -0.4102014 -0.119195595 0.33830962 0.049057316 -0.2569426 -0.24210896 -1.1239877
0.18082847 -0.09527348 0.11817414 -0.63629127 -0.55811733 -0.37562242 -0.32744008 -0.15834825
0.59533525 -0.037171938 -0.39692718 -0.22062166 0.19644481 -0.27914244 0.5232062 0.29167932
-0.10972215 -0.71944124 0.06269052 -0.16458274 0.19213748 -0.1304518 -0.088851914 -0.21645029
-0.20439065 0.31132677 -0.82576007 0.37505424 -0.19425304 -0.17939511 0.27744526 0.10871604
0.49784127 0.08298289 -0.5213259 -0.14562689 -0.6219588 -0.29486644 -0.29771823 0.02007359
0.16947912 -0.050202347 -0.27008963 0.36276326 0.39768055 0.07110045 0.32240784 -0.02607605
0.20601958 0.06296266 -0.05080456 0.053257816 0.062051907 0.40413216 -0.17011769 -1.0059124
0.14032519 -0.33959997 -0.58566034 0.2732002 -0.6996705 -0.5496358 -0.14531676 -0.6848426
0.37502083 0.1778514 0.1742866 -0.46857095 -0.71980375 -0.73758256 -0.18395655 -0.08188783
0.10865973 -0.0632591 -0.39291582 0.18126494 -0.44490862 -0.11383651 0.3152207 -0.5370666
0.014830843 -1.026744 -0.12219244 0.33948895 0.22501163 0.15106356 0.44855163 0.14737439
-0.43129018 0.006582955 -0.040294003 0.105517365 0.105807476 0.09732422 -0.20386331 -0.47469702
0.09926928 -0.33783117 0.07854525 0.08150496 0.08821332 0.16379608 -0.38485843 0.2853077
0.043211073 0.2661789 -0.24259888 0.5301227 -0.48707882 0.14507896 1.0027691 0.95887995
-0.94426805 0.027364546 -0.7796885 0.7144717 -1.8009094 -0.48421592 -0.09809017 0.2619085
0.24400859 -0.29359716 -0.055818405 0.34428272 -0.2758958 -0.23566239 0.39552382 -0.07491407
-0.48384696 0.17379211 0.39301944 0.56519943 0.11119588 -0.21210504 0.06933239 0.21173605
0.14333248 -0.21777749 0.20516492 -0.0717056 -0.36326388 -0.49391207 -0.83086014 -0.83795255
-0.018849835 -0.67690676 0.3645028 0.09360946 -0.35459957 -0.03788386 0.7138007 0.44770482
0.27409053 0.095081486 -0.08031909 -0.23536772 0.052318066 0.2707186 0.30081883 0.26055455
0.33790776 -0.45577994 -0.4336897 -0.11140417 -0.25705716 0.27545848 -0.20144928 0.2665461
0.3291789 -0.31188834 0.13202173 -0.20535277 -0.0958 -0.12092158 0.23997301 -0.081404544
0.2556767 -0.34363022 -0.24886511 -0.08621402 -0.22533175 0.3099637 0.17888154 -0.20868288
0.08992639 -0.3632575 0.04363235 -0.11472211 -0.2592658 -0.037868526 -0.073328614 -0.13252054
-0.079761654 0.028509509 -0.22364892 -0.32616487 -0.2912946 0.123080775 -0.19830722 0.03043285
00000000: 97ae e33e a314 debd ef70 19bf 7706 763e
00000010: db21 84be 13f2 043e 2304 9e3e fc21 15be
00000020: 5ec4 62bd e34f f53e 94d4 e23e 5baa f1be
00000030: b33a e2be c3b7 13bf 0bb9 81be 2e0d ebbd
00000040: 52d5 cabf a4e0 97bf 2721 8fbe 0672 1e3e
00000050: d4f0 b23e df41 053e 7e88 923d bf35 ff3c
00000060: 7927 b5bd 625b babe a1a1 003f c8db 2f3f
00000070: e8ea 573d 4848 183f add3 143f 4b72 66be
00000080: 9f68 9e3e fbee 0d3e c172 1fbf 71e0 653e
00000090: 5a1c 223f 1046 acbe 5d02 1fbe 4b5e 0c3f
000000a0: aa17 ff3e 6a3f de3d 89cc 8a3e 4e9e 403e
000000b0: 1b05 e73e 5158 883e 0adb 3d3e 735d 6dbf
000000c0: 091c adbe eb05 d2be d21c f4bd eb36 ad3e
000000d0: 53f0 483d fb8d 83be 69eb 77be d4de 8fbf
000000e0: 192b 393e be1e c3bd 4905 f23d fce3 22bf
000000f0: c7e0 0ebf 9551 c0be 3aa6 a7be 0b26 22be
00000100: e467 183f 9a41 18bd 0a3a cbbe a5ea 61be
00000110: d428 493e c2eb 8ebe d7f0 053f fe56 953e
00000120: 02b6 e0bd 4d2d 38bf e363 803d 6188 28be
00000130: b0bf 443e 2895 05be fef7 b5bd 25a5 5dbe
00000140: c84b 51be 3966 9f3e 0365 53bf 1c07 c03e
00000150: 45ea 46be 5ab3 37be 4e0d 8e3e 84a6 de3d
00000160: 0de5 fe3e eff2 a93d 9d75 05bf 371f 15be
00000170: b138 1fbf bcf8 96be 866e 98be 5f71 a43c
00000180: ef8b 2d3e faa0 4dbd 3049 8abe 1bbc b93e
00000190: c99c cb3e 1d9d 913d a412 a53e 719d d5bc
000001a0: ccf6 523e 91f2 803d 7118 50bd de24 5a3d
000001b0: 242a 7e3d 69ea ce3e 5533 2ebe bdc1 80bf
000001c0: 68b1 0f3e 0ce0 adbe d6ed 15bf e6e0 8b3e
000001d0: 9b1d 33bf efb4 0cbf ebcd 14be d851 2fbf
000001e0: bb02 c03e ad1e 363e 3078 323e 88e8 efbe
000001f0: 0f45 38bf 36d2 3cbf 1b5f 3cbe ceb4 a7bd
00000200: fe88 de3d fd8d 81bd 432c c9be 849d 393e
00000210: 10cb e3be 1e23 e9bd 9c64 a13e 327d 09bf
00000220: 10fd 723c 596c 83bf 0840 fabd 7fd1 ad3e
00000230: 7369 663e 68b0 1a3e 8fa8 e53e 50e9 163e
00000240: 11d2 dcbe d4b5 d73b 530b 25bd 7d19 d83d
00000250: 97b1 d83d ec51 c73d 8bc1 50be 7d0b f3be
00000260: b14d cb3d 35f8 acbe 55dc a03d 13ec a63d
00000270: 2fa9 b43d 29ba 273e 2a0c c5be da13 923e
00000280: 18fe 303d 9a48 883e d76b 78be 1fb6 073f
00000290: 6562 f9be 948f 143e bd5a 803f 2879 753f
000002a0: 8dbb 71bf 9d2b e03c aa99 47bf 9ee7 363f
000002b0: 3384 e6bf 26eb f7be 80e3 c8bd df18 863e
000002c0: 63dd 793e 5e52 96be d7a1 64bd d345 b03e
000002d0: 3742 8dbe 7b51 71be 1982 ca3e 8c6c 99bd
000002e0: caba f7be 8ff6 313e d839 c93e e9b0 103f
000002f0: aaba e33d 1032 59be 24fe 8d3d 56d1 583e
00000300: c0c5 123e 1001 5fbe c116 523e 63da 92bd
00000310: b9fd b9be 0be2 fcbe 40b3 54bf 0f84 56bf
00000320: f86a 9abc c349 2dbf 1ca0 ba3e 51b6 bf3d
00000330: 138e b5be 1b2c 1bbd a5bb 363f 9139 e53e
00000340: 9855 8c3e 15ba c23d 567e a4bd 3c04 71be
00000350: 784b 563d a19b 8a3e ed04 9a3e 6867 853e
00000360: 3f02 ad3e fd5b e9be 940c debe df27 e4bd
00000370: ff9c 83be e508 8d3e b848 4ebe bb78 883e
00000380: 238a a83e d4af 9fbe b430 073e ff47 52be
00000390: ca32 c4bd bca5 f7bd 7cbb 753e 6db7 a6bd
000003a0: 0ee8 823e 4df0 afbe 7fd6 7ebe fa90 b0bd
000003b0: 5ebd 66be 90b3 9e3e b92c 373e f7b0 55be
000003c0: 542b b83d e3fc b9be d6b7 323d 6df3 eabd
000003d0: 7dbe 84be 071c 1bbd 502d 96bd 77b3 07be
000003e0: 145a a3bd c68c e93c 3904 65be 15ff a6be
000003f0: 9124 95be c611 fc3d 0c11 4bbe 504e f93c

arith.constant2 f4 [32, 32]
-0.4619067 0.20154634 0.92474085 -0.28235132 0.6694839 0.041109815 0.4167833 0.044362728
0.14356212 0.03990391 0.22854356 -0.07201777 -0.07145041 0.021992648 0.21867645 0.0050644735
0.5506182 -0.16345571 -0.32908887 0.6568172 -0.30909848 -0.50555426 0.23804945 0.49206275
0.3697283 -0.22910446 0.3263133 -0.18906794 -0.2658737 0.04876097 0.04012367 0.028760236
0.023478664 -0.010500052 -0.1233263 -0.15841632 0.07789084 0.4882694 -0.17847945 -0.16779175
0.11045089 -0.04963114 0.094889626 0.121508025 0.16487986 0.030424869 0.14825569 -0.026484238
0.30129388 -0.2773891 -0.10187822 0.15594175 0.23959269 -0.2257257 -0.16555156 -0.17126739
0.20423707 -0.008275483 0.047959093 0.03600125 0.33190957 -0.11107201 -0.15011847 0.033985823
-0.35127115 0.214469 -0.37226406 0.16554798 -0.63571507 0.1672769 -0.050477084 -0.17508331
0.10920953 -0.19743149 -0.028753063 0.035889383 -0.073339805 0.041661195 0.20084246 -0.009270176
-0.27391577 0.24675164 -0.49358085 0.20167956 0.3364386 -0.17577246 -0.15248837 -0.21368685
0.12638773 0.19931203 0.186222 -0.07560319 0.044575468 -0.003521058 0.20352273 -0.02248577
0.1615208 -0.020357547 0.04465297 0.45510653 0.24974473 -0.18336967 0.5417679 -0.33284512
0.5762738 -0.21450959 0.10806424 -0.52135336 -0.39443043 -0.0969843 0.17757384 -0.0155583285
-0.16769399 -0.48324767 0.37189668 -0.04658934 0.18278417 -0.19281043 -0.31014684 0.5067989
0.50745976 -0.100309975 0.3911641 -0.090955794 -0.28488228 0.071804084 0.24708937 0.097924076
0.1505719 0.22361463 0.33474237 0.22677626 0.26465356 -0.46140832 -0.1617794 0.18034904
-0.03177041 0.07490378 -0.049593143 -0.022313725 -0.0044765393 0.054935113 -0.23112418 0.15184037
0.31328717 -0.13312429 -0.042502545 -0.0021939247 0.43782383 -0.5928038 -0.3374176 0.2034731
0.13315499 -0.10362413 -0.2794963 -0.0046901205 0.04699562 -0.10508922 0.15831655 -0.08259963
0.1438457 0.48706573 -0.042293362 0.17312881 -0.37491775 -0.12753858 -0.046329767 -0.1014378
0.09719203 0.120975405 -0.0103491675 -0.22497693 0.02306166 0.0057982206 -0.12351617 -0.012463247
0.17731519 0.62948084 0.2924659 -0.356092 -0.40107232 -0.44417644 -0.31560037 -0.03318602
-0.17871623 0.017143488 -0.103724815 0.08730824 -2.1422253e-05 0.021088246 0.084168136 -0.06245929
0.55055875 0.3886549 -0.46554536 0.6310045 0.0041533103 -0.08007168 0.26635894 0.2574683
0.028220316 0.027247647 -0.21899211 0.15490209 0.18413949 0.0069734184 -0.042381655 -0.005528474
0.1398453 -0.11794056 0.26501304 -0.41807735 -0.1955836 0.73159075 -0.19712125 0.28550068
0.00054414826 0.013481263 -0.1514728 0.00186729 0.1125545 0.0061155404 -0.08327963 -0.0009841772
-0.40042683 0.5163373 0.6837314 0.10735417 -0.020888563 0.26689237 0.017900655 0.33430716
-0.19717197 0.0045425026 0.07317362 0.069407284 -0.048040472 0.013148783 -0.34197202 -0.032417208
0.4249172 -0.43297097 -0.21893063 0.18560451 -0.0146036 0.25848007 -0.61357117 0.31612015
-0.0212341 -0.0006973738 -0.16670644 0.069479324 0.1558568 -0.008040906 0.012686407 0.004352251
00000000: 097f ecbe 2a62 4e3e d1bb 6c3f 5a90 90be
00000010: 4c63 2b3f c462 283d 9f64 d53e b1b5 353d
00000020: f301 133e 4872 233d 5307 6a3e 0d7e 93bd
00000030: 9854 92bd ed29 b43c b8ec 5f3e e2f3 a53b
00000040: 50f5 0c3f ef60 27be 567e a8be 2c25 283f
00000050: 2842 9ebe 016c 01bf 3cc3 733e a6ef fb3e
00000060: 074d bd3e 5c9a 6abe 8912 a73e 079b 41be
00000070: 9920 88be 95b9 473d b858 243d 969a eb3c
00000080: 5456 c03c 6908 2cbc 8092 fcbd e337 22be
00000090: 3c85 9f3d 72fe f93e 51c3 36be 9ad1 2bbe
000000a0: 1434 e23d 064a 4bbd 7e55 c23d 33d9 f83d
000000b0: 44d6 283e 933d f93c 57d0 173e 79f5 d8bc
000000c0: 3143 9a3e f205 8ebe 87a5 d0bd 32af 1f3e
000000d0: c957 753e a324 67be 5986 29be b860 2fbe
000000e0: 8623 513e e495 07bc c170 443d 0c76 133d
000000f0: 0df0 a93e b979 e3bd a8b8 19be b834 0b3d
00000100: d0d9 b3be c39d 5b3e 6599 bebe 6985 293e
00000110: 39be 22bf a34a 2b3e 0fc1 4ebd 0a49 33be
00000120: 3fa9 df3d 7b2b 4abe 8b8b ebbc bf00 133d
00000130: 2e33 96bd eea4 2a3d a5a9 4d3e f0e1 17bc
00000140: b03e 8cbe 76ac 7c3e a1b6 fcbe 1685 4e3e
00000150: ae41 ac3e b2fd 33be e925 1cbe bad0 5abe
00000160: c96b 013e 7418 4c3e fbb0 3e3e d8d5 9abd
00000170: c494 363d 8dc1 66bb 4368 503e 1434 b8bc
00000180: b565 253e dfc4 a6bc 08e6 363d b903 e93e
00000190: 15bd 7f3e 42c5 3bbe 4db1 0a3f ad6a aabe
000001a0: ae86 133f 67a8 5bbe c950 dd3d 6a77 05bf
000001b0: c9f2 c9be b49f c6bd ebd5 353e 5ce8 7ebc
000001c0: f9b7 2bbe 3d6c f7be 3e69 be3e 77d4 3ebd
000001d0: c62b 3b3e 1970 45be 91cb 9ebe 93bd 013f
000001e0: e2e8 013f 516f cdbd a946 c83e 0847 babd
000001f0: 17dc 91be 050e 933d ff04 7d3e 6b8c c83d
00000200: 852f 1a3e 3cfb 643e 5a63 ab3e 0938 683e
00000210: ac80 873e b63d ecbe 80a9 25be 6bad 383e
00000220: b021 02bd 2767 993d 2e22 4bbd 46cb b6bc
00000230: efaf 92bb a403 613d d1ab 6cbe 0b7c 1b3e
00000240: 2d67 a03e bc51 08be 2617 2ebd f3c7 0fbb
00000250: 722a e03e fdc1 17bf 00c2 acbe 415b 503e
00000260: c859 083e e338 d4bd 241a 8fbe 95af 99bb
00000270: 7b7e 403d 0439 d7bd bc1d 223e ff29 a9bd
00000280: 4a4c 133e ae60 f93e ce3b 2dbd ae48 313e
00000290: 38f5 bfbe 7999 02be 48c4 3dbd 9fbe cfbd
000002a0: 9d0c c73d f4c1 f73d 8e8f 29bc 5a60 66be
000002b0: ceeb bc3c 00ff bd3b 0cf6 fcbd a632 4cbc
000002c0: 1d92 353e a825 213f 17be 953e b151 b6be
000002d0: 5a59 cdbe 186b e3be 5f96 a1be 10ee 07bd
000002e0: 6301 37be 8070 8c3c ad6d d4bd aace b23d
000002f0: f0b3 b3b7 42c1 ac3c 5860 ac3d 50d5 7fbd
00000300: 6bf1 0c3f c6fd c63e f65b eebe 8389 213f
00000310: 7e18 883b 9ffc a3bd 3360 883e e3d2 833e
00000320: 4b2e e73c 7536 df3c 783f 60be a79e 1e3e
00000330: 108f 3c3e 4681 e43b 6398 2dbd 3428 b5bb
00000340: 9b33 0f3e d28a f1bd caaf 873e 3c0e d6be
00000350: 1147 48be 8849 3b3f 27da 49be 252d 923e
00000360: 2ca5 0e3a 84e0 5c3c b01b 1bbe dbbf f43a
00000370: f982 e63d df64 c83b 838e aabd 82ff 80ba
00000380: bf04 cdbe ae2e 043f 0509 2f3f 81dc db3d
00000390: 7e1e abbc 1ea6 883e 65a4 923c 4f2a ab3e
000003a0: 73e7 49be 46d9 943b 0ddc 953d 6825 8e3d
000003b0: 16c6 44bd fe6d 573c f516 afbe e8c7 04bd
000003c0: bf8e d93e 5fae ddbe 5a2f 60be 1c0f 3e3e
000003d0: f043 6fbc 8057 843e 0013 1dbf 80da a13e
000003e0: 23f3 adbc f7cf 36ba 18b5 2abe 2d4b 8e3d
000003f0: ed98 1f3e 01be 03bc a6da 4f3c 549d 8e3b

functional_1_1/dense_3_1/BiasAdd/ReadVariableOp f4 [32]
0.11822197 0.027812945 0.03235055 0.3310941 -0.08453511 -0.05705355 -0.14573349 -0.18458815
0.14105323 -0.05080742 0.22189412 0.2908778 -0.00035299876 -0.05586294 -0.10684424 0.18591318
0.10372212 0.061308548 0.07706322 0.0038492365 0.03636748 0.035230182 0.16797702 -0.06637993
0.04959397 0.016045457 -0.047095705 0.07086184 0.083944656 0.108854786 0.071954824 -0.01883876
00000000: 5c1e f23d f9d7 e33c 0382 043d 2a85 a93e
00000010: be20 adbd fcb0 69bd 293b 15be ad04 3dbe
00000020: 4270 103e 711b 50bd 3638 633e efed 943e
00000030: b112 b9b9 8ad0 64bd 27d1 dabd 0660 3e3e
00000040: 436c d43d ac1e 7b3d 52d3 9d3d 7943 7c3b
00000050: 11f6 143d 864d 103d 2b02 2c3e 33f2 87bd
00000060: 0c23 4b3d c371 833c 6de7 40bd 0320 913d
00000070: 2deb ab3d 42ef de3d 0d5d 933d be53 9abc

functional_1_1/dense_4_1/BiasAdd/ReadVariableOp f4 [16]
0.10719229 0.049604364 -0.0366818 0.0036550076 0.05102375 0.018072037 -0.1208941 -0.0121900905
0.07241703 0.106995605 0.035918064 0.14867146 0.007816289 -0.004805491 0.09376291 0.16687047
00000000: a287 db3d f22d 4b3d a83f 16bd da88 6f3b
00000010: 48fe 503d cf0b 943c 5397 f7bd f2b8 47bc
00000020: 614f 943d 8320 db3d d21e 133d 553d 183e
00000030: e40f 003c 6177 9dbb c506 c03d 18e0 2a3e

functional_1_1/embedding_2_1/GatherV2/ReadVariableOp f4 [16, 8]
-0.3417657 -0.13037243 -0.31734535 -0.0093781715 0.2381304 -0.16003416 0.15239221 -0.39690617
-0.18943322 0.18204732 0.40181842 -0.13560411 0.10376552 0.29583138 -0.40023705 -0.09595622
-0.30133832 -0.3744876 0.023256168 -0.07564209 0.27249962 -0.026588706 -0.14377643 0.19368035
0.049791995 0.37095678 0.1575336 0.06875326 -0.7031607 -0.11197369 -0.17890383 0.0054181423
0.21037814 -0.4037157 0.07259024 0.27981287 0.4158093 0.05255163 0.2219582 0.0307842
0.12654704 -0.63712084 0.28048116 0.10359017 0.028718835 -0.1984942 -0.2133108 0.084539
0.15436381 0.074151084 0.24994048 0.077244274 0.11567106 -0.30549258 -0.06751346 0.22068396
-0.04857119 0.11557524 -0.031384293 0.15118669 -0.162685 -0.040094215 0.40854734 0.09724895
-0.6432421 -0.27008504 -0.20691426 -0.3398733 0.05983035 0.42636228 -0.04302523 -0.18059075
-0.18133083 -0.23548424 0.27265644 0.036041982 -0.0034551958 0.30628 0.4355117 -0.11022896
0.2586057 -0.27262053 -0.09878699 -0.64663863 -0.32083818 0.32057634 -0.13012134 0.3037297
-0.07358463 0.36235872 -0.07767938 -0.43205994 -0.12000582 -0.07753625 -0.0021827521 -0.22780162
0.37714756 0.15581286 0.15626787 0.016593942 0.19448105 -0.2632939 0.11970044 -0.12926683
-0.0064374767 0.07781472 -0.86747277 0.2134114 -0.3360087 0.28816393 0.48352537 -0.12142242
0.10945931 -0.044666503 0.16757701 0.07146384 0.4492883 -0.36161557 0.07867044 0.0597356
0.31097683 0.17516118 -0.18118335 0.29801512 -0.038338732 -0.0834622 -0.45320287 -0.13379517
00000000: eafb aebe 5a80 05be 177b a2be e7a6 19bc
00000010: 75d8 733e ffdf 23be b40c 1c3e 4937 cbbe
00000020: c8fa 41be 9d6a 3a3e 25bb cd3e cedb 0abe
00000030: 0483 d43d 3677 973e dfeb ccbe b284 c4bd
00000040: 0449 9abe d7bc bfbe b883 be3c 3dea 9abd
00000050: 1285 8b3e 8fd0 d9bc 213a 13be 2454 463e
00000060: b1f2 4b3d 0cee bd3e 7d50 213e 82ce 8c3d
00000070: 5702 34bf 7652 e5bd 9132 37be ac8a b13b
00000080: 5e6d 573e d3b3 cebe 31aa 943d a243 8f3e
00000090: f5e4 d43e 6140 573d 0349 633e 262f fc3c
000000a0: 8c95 013e 5a1a 23bf 3a9b 8f3e 1527 d43d
000000b0: c343 eb3c 1042 4bbe 256e 5abe c922 ad3d
000000c0: 8c11 1e3e 86dc 973d 66f0 7f3e 3f32 9e3d
000000d0: f3e4 ec3d 8669 9cbe 7f44 8abd fafa 613e
000000e0: 96f2 46bd b6b2 ec3d d18c 00bd afd0 1a3e
000000f0: e696 26be d539 24bd 1e2d d13e 752a c73d
00000100: 84ab 24bf 9648 8abe 55e1 53be e003 aebe
00000110: ab10 753d 284c da3e 393b 30bd c8ec 38be
00000120: caae 39be c822 71be a099 8b3e c2a0 133d
00000130: 9170 62bb bbd0 9c3e 64fb de3e b9bf e1bd
00000140: f767 843e eb94 8bbe d550 cabd 1c8a 25bf
00000150: e744 a4be 9522 a43e 873e 05be 7682 9b3e
00000160: 8ab3 96bd 1587 b93e 5e16 9fbd f636 ddbe
00000170: 9dc5 f5bd 53cb 9ebd 810c 0fbb d444 69be
00000180: 7c19 c13e 688d 1f3e af04 203e 05f0 873c
00000190: 0a26 473e 75ce 86be 8125 f53d 865e 04be
000001a0: 78f1 d2bb 535d 9f3d b212 5ebf 8588 5a3e
000001b0: 5509 acbe 398a 933e a390 f73e 51ac f8bd
000001c0: 342c e03d 39f4 36bd 4f99 2b3e a25b 923d
000001d0: 1e09 e63e ad25 b9be f81d a13d 51ad 743d
000001e0: 5b38 9f3e 745d 333e 2188 39be 7095 983e
000001f0: 1309 1dbd 3bee aabd 350a e8be 9a01 09be

functional_1_1/embedding_3_1/GatherV2/ReadVariableOp f4 [5, 8]
0.055122573 -0.0018063297 0.03306535 -0.0029731912 -0.014161513 -0.0018244113 0.05302816 -0.014990166
0.07439625 0.038238708 0.0026161617 0.009648716 -0.049310528 0.0043492042 0.049142253 -0.0020363438
0.041090105 -0.008887436 0.04514928 -0.012677986 0.00066168676 -0.0021228082 0.050776448 0.013766529
0.04559366 -0.012489493 0.03931683 -0.010838753 -0.0061153607 0.0068453075 0.05820909 -0.0006378405
0.052102696 0.0045962743 0.023462724 -0.0036932034 -0.013636273 -0.0010655068 0.046110295 0.003827061
00000000: 35c8 613d 5ec2 ecba 886f 073d dfd9 42bb
00000010: b105 68bc 1621 efba 0e34 593d 5099 75bc
00000020: 105d 983d 31a0 1c3d e973 2b3b a615 1e3c
00000030: d6f9 49bd c583 8e3b 6349 493d 2e74 05bb
00000040: 194e 283d 9c9c 11bc 74ee 383d 54b7 4fbc
00000050: 0c75 2d3a d01e 0bbb f7fa 4f3d 028d 613c
00000060: 6bc0 3a3d bba0 4cbc af0a 213d 0695 31bc
00000070: 5d63 c8bb 9a4e e03b a86c 6e3d c034 27ba
00000080: a369 553d 589c 963b e634 c03c ac09 72bb
00000090: ad6a 5fbc 7aa8 8bba 26de 3c3d 6ecf 7a3b
